…
5446 - 74ms/epoch - 5ms/step\n\n\nNow lets try a cnn\n\n\n[1] \"it must be electrified and supplied with water\"\n\n\n[[1]]\n[1] 1 2 3 4 5 6 7 8\n\n\n$it\n[1] 1\n\n$must\n[1] 2\n\n$be\n[1] 3\n\n$electrified\n[1] 4\n\n$and\n[1] 5\n\n$supplied\n[1] 6\n\n$with\n[1] 7\n\n$water\n[1] 8\n\n\n\n\n\nModel: \"sequential_1\"\n________________________________________________________________________________\n Layer (type)                       Output Shape                    Param #     \n================================================================================\n embedding (Embedding)              (None, 15, 10)                  10000       \n dropout (Dropout)                  (None, 15, 10)                  0           \n flatten (Flatten)                  (None, 150)                     0           \n dense_3 (Dense)                    (None, 100)                     15100       \n dense_2 (Dense)                    (None, 4)                       404         \n================================================================================\nTotal params: 25504 (99.62 KB)\nTrainable params: 25504 (99.62 KB)\nNon-trainable params: 0 (0.00 Byte)\n________________________________________________________________________________\n\n\n\n\n\n\nembedding_dims <- 10\nmodel <- keras_model_sequential() %>% \n  layer_embedding(max_features, output_dim = e
…
= maxlen) %>%\n  layer_dropout(0.2) %>%\n  layer_conv_1d(filters = 64, kernel_size = 8, activation = \"relu\") %>%\n  layer_max_pooling_1d(pool_size = 2) %>%\n  layer_flatten() %>%\n  layer_dense(300, activation = \"relu\") %>%\n  layer_dense(4, activation = \"softmax\")\n\nsummary(model)\n\nModel: \"sequential_2\"\n________________________________________________________________________________\n Layer (type)                       Output Shape                    Param #     \n================================================================================\n embedding_1 (Embedding)            (None, 15, 10)                  10000       \n dropout_1 (Dropout)                (None, 15, 10)                  0           \n conv1d (Conv1D)                    (None, 8, 64)                   5184        \n max_pooling1d (MaxPooling1D)       (None, 4, 64)                   0           \n flatten_1 (Flatten)                (None, 256)                     0           \n dense_5 (Dense)                    (None, 300)                     77100       \n dense_4 (Dense)                    (None, 4)                       1204        \n================================================================================\nTotal params: 93488 (365.19 KB)\nTrainable params: 93488 (365.19 KB)\nNon-trainable params: 0 (0.00 Byte)\n________________________________________________________________________________\n\nmodel %>% compile(\n  loss = \"categorical_crossentropy\",\n  optimizer = \"adam\",\n  metrics = \"accuracy\"\n)\n\nh
…
