…
As discussed in the methods section, three different architectures of networks were tested here on the four different data input structures. Table 4 below gives the validation data set classification accuracy for the different network architectures for the different data input structures.\n\n\nModel: \"sequential\"\n________________________________________________________________________________\n Layer (type)                       Output Shape                    Param #     \n================================================================================\n dense_1 (Dense)                    (None, 50)                      454300      \n dense (Dense)                      (None, 4)                       204         \n================================================================================\nTotal params: 454504 (1.73 MB)\nTrainable params: 454504 (1.73 MB)\nNon-trainable params: 0 (0.00 Byte)\n________________________________________________________________________________\n\n\n10/10 - 0s - loss: 1.3663 - accuracy: 0.5607 - 71ms/epoch - 7ms/step\n\n\n10/10 - 0s - loss: 2.2444 - accuracy: 0.5390 - 64ms/epoch - 6ms/step\n\n\nModel: \"sequential_1\"\n________________________________________________________________________________\n Layer (type)                       Output Shape                    Param #     \n================================================================================\n dense_5 (Dense)                    (None, 50)                      454300      \n dense_4 (Dense)                    (None, 10)                      510         \n dense_3 (Dense)                    (None, 5)                       55          \n dense_2 (Dense)                    (None, 4)                       24          \n================================================================================\nTotal params: 454889 (1.74 MB)\nTrainable params: 454889 (1.74 MB)\nNon-trainable params: 0 (0.00 Byte)\n________________________________________________________________________________\n\n\n10/10 - 0s - loss: 1.4498 - accuracy: 0.5280 - 67ms/epoch - 7ms/step\n\n\n10/10 - 0s - loss: 1.9091 - accuracy: 0.5108 - 70ms/epoch - 7ms/step\n\n\nModel: \"sequential_2\"\n________________________________________________________________________________\n Layer (type)                       Output Shape                    Param #     \n================================================================================\n dense_8 (Dense)                    (None, 500)                     4543000     \n dropout (Dropout)                  (None, 500)                     0           \n dense_7 (Dense)                    (None, 20)                      10020       \n dense_6 (Dense)                    (None, 4)                       84          \n================================================================================\nTotal params: 4553104 (17.37 MB)\nTrainable params: 4553104 (17.37 MB)\nNon-trainable params: 0 (0.00 Byte)\n________________________________________________________________________________\n\n\n10/10 - 0s - loss: 2.0155 - accuracy: 0.5567 - 113ms/epoch - 11ms/step\n\n\n10/10 - 0s - loss: 3.3024 - accuracy: 0.5385 - 116ms/epoch - 12ms/step\n\n\nModel: \"sequential_3\"\n________________________________________________________________________________\n Layer (type)                       Output Shape                    Param #     \n================================================================================\n dense_10 (Dense)                   (None, 50)                      18950       \n dense_9 (Dense)                    (None, 4)                       204         \n================================================================================\nTotal params: 19154 (74.82 KB)\nTrainable params: 19154 (74.82 KB)\nNon-trainable params: 0 (0.00 Byte)\n________________________________________________________________________________\n\n\n\n\n\n10/10 - 0s - loss: nan - accuracy: 0.4438 - 52ms/epoch - 5ms/step\n\n\n\n\n\n10/10 - 0s - loss: 1.2166 - accuracy: 0.4907 - 51ms/epoch - 5ms/step\n\n\nModel: \"sequential_4\"\n________________________________________________________________________________\n Layer (type)                       Output Shape                    Param #     \n================================================================================\n dense_14 (Dense)                   (None, 50)                      18950       \n dense_13 (Dense)                   (None, 10)                      510         \n dense_12 (Dense)                   (None, 5)                       55          \n dense_11 (Dense)                   (None, 4)                       24          \n================================================================================\nTotal params: 19539 (76.32 KB)\nTrainable params: 19539 (76.32 KB)\nNon-trainable params: 0 (0.00 Byte)\n________________________________________________________________________________\n\n\n10/10 - 0s - loss: nan - accuracy: 0.4524 - 55ms/epoch - 6ms/step\n\n\n\n\n\n10/10 - 0s - loss: 1.3549 - accuracy: 0.4504 - 56ms/epoch - 6ms/step\n\n\nModel: \"sequential_5\"\n________________________________________________________________________________\n Layer (type)                       Output Shape                    Param #     \n================================================================================\n dense_17 (Dense)                   (None, 500)                     189500      \n dropout_1 (Dropout)                (None, 500)                     0           \n dense_16 (Dense)                   (None, 20)                      10020       \n dense_15 (Dense)                   (None, 4)                       84          \n================================================================================\nTotal params: 199604 (779.70 KB)\nTrainable params: 199604 (779.70 KB)\nNon-trainable params: 0 (0.00 Byte)\n________________________________________________________________________________\n\n\n\n\n\n10/10 - 0s - loss: nan - accuracy: 0.4635 - 57ms/epoch - 6ms/step\n\n\n10/10 - 0s - loss: nan - accuracy:
…
$itself\n[1] 23\n\n$with\n[1] 24\n\n$a\n[1] 6\n\n$measure\n[1] 25\n\n$of\n[1] 5\n\n$discipline\n[1] 26\n\n$a\n[1] 6\n\n$work\n[1] 3\n\n$ethic\n[1] 27\n\n$and\n[1] 2\n\n$responsibility\n[1] 28\n\n$`for`\n[1] 29\n\n$the\n[1] 4\n\n$actions\n[1] 30\n\n$we\n[1] 31\n\n$undertake\n[1] 32\n\n\n\n\n\nModel: \"sequential_7\"\n________________________________________________________________________________\n Layer (type)                       Output Shape                    Param #     \n================================================================================\n embedding (Embedding)              (None, 15, 10)                  10000       \n dropout_2 (Dropout)                (None, 15, 10)                  0           \n conv1d (Conv1D)                    (None, 8, 64)                   5184        \n max_pooling1d (MaxPooling1D)       (None, 4, 64)                   0           \n flatten (Flatten)                  (None, 256)                     0           \n dense_21 (Dense)                   (None, 300)                     77100       \n dense_20 (Dense)                   (None, 4)                       1204        \n================================================================================\nTotal params: 93488 (365.19 KB)\nTrainable params: 93488 (365.19 KB)\nNon-trainable params: 0 (0.00 Byte)\n________________________________________________________________________________\n\n\n\n\n\n10/10 - 0s - loss: 1.6236 - accuracy: 0.2469 - 64ms/epoch - 6ms/step\n\n\nModel: \"sequential_8\"\n________________________________________________________________________________\n Layer (type)                       Output Shape                    Param #     \n================================================================================\n embedding_1 (Embedding)            (None, 15, 10)                  10000       \n dropout_3 (Dropout)                (None, 15, 10)                  0           \n conv1d_1 (Conv1D)                  (None, 10, 36)                  2196        \n max_pooling1d_1 (MaxPooling1D)     (None, 5, 36)                   0           \n flatten_1 (Flatten)                (None, 180)                     0           \n dense_23 (Dense)                   (None, 100)                     18100       \n dense_22 (Dense)                   (None, 4)                       404         \n================================================================================\nTotal params: 30700 (119.92 KB)\nTrainable params: 30700 (119.92 KB)\nNon-trainable params: 0 (0.00 Byte)\n________________________________________________________________________________\n\n\n\n\n\n10/10 - 0s - loss: 1.5457 - accuracy: 0.2408 - 62ms/epoch - 6ms/step\n\n\n4/4 - 0s - loss: 1.5515 - accuracy
…
